onnx_models/ad01_int8.onnx (onnx, 279049 bytes, 20 tensors)

functional_1/dense_7/MatMul i1 [128, 128]
000000 0a 12 f8 06 fe fe f3 e1 0a 01 f5 ec fe fd 0d f3
       10 18 -8 6 -2 -2 -13 -31 10 1 -11 -20 -2 -3 13 -13
000010 f9 0f 0c 0e 0b 19 05 1f 0d ef 0f d7 ff f2 01 04
       -7 15 12 14 11 25 5 31 13 -17 15 -41 -1 -14 1 4
000020 f2 04 f6 f3 f3 05 f7 06 02 09 de 08 d2 0d 03 ec
       -14 4 -10 -13 -13 5 -9 6 2 9 -34 8 -46 13 3 -20
000030 ec ce f4 fe ff 0d eb 21 f3 08 f9 ea eb 25 f4 f7
       -20 -50 -12 -2 -1 13 -21 33 -13 8 -7 -22 -21 37 -12 -9
000040 0f fd f8 ed fa 09 10 09 14 f5 00 16 0c f8 00 e8
       15 -3 -8 -19 -6 9 16 9 20 -11 0 22 12 -8 0 -24
000050 05 03 2c 0d 0e 09 07 00 f7 20 0a 00 00 ff fd 15
       5 3 44 13 14 9 7 0 -9 32 10 0 0 -1 -3 21
000060 19 fe 0c e7 ff ec 12 ec 0c f7 f9 e3 02 01 ed e5
       25 -2 12 -25 -1 -20 18 -20 12 -9 -7 -29 2 1 -19 -27
000070 04 fa 0a 0b 00 e1 f8 15 fa 00 12 0a f5 0e 03 06
       4 -6 10 11 0 -31 -8 21 -6 0 18 10 -11 14 3 6
000080 02 07 03 04 07 05 0c ff 08 0f e0 0e fb 03 e2 0a
       2 7 3 4 7 5 12 -1 8 15 -32 14 -5 3 -30 10
000090 0a f6 fe f7 02 ec 08 fa fd fa 05 f3 07 04 09 fb
       10 -10 -2 -9 2 -20 8 -6 -3 -6 5 -13 7 4 9 -5
0000a0 01 0b f9 fa 02 16 0b 00 f5 03 08 06 fb f4 05 fc
       1 11 -7 -6 2 22 11 0 -11 3 8 6 -5 -12 5 -4
0000b0 03 02 fe 04 f7 00 09 0c 0c 0f fc fc f9 fe ec fd
       3 2 -2 4 -9 0 9 12 12 15 -4 -4 -7 -2 -20 -3
0000c0 f9 02 00 01 08 06 f7 09 fd 02 00 07 fd f8 0c 09
       -7 2 0 1 8 6 -9 9 -3 2 0 7 -3 -8 12 9
0000d0 04 01 f8 f6 08 02 fd 01 09 02 ff 00 e9 ff 08 f7
       4 1 -8 -10 8 2 -3 1 9 2 -1 0 -23 -1 8 -9
0000e0 03 02 01 0b 0f f8 fc 08 07 ff fe f3 b6 00 00 f8
       3 2 1 11 15 -8 -4 8 7 -1 -2 -13 -74 0 0 -8
0000f0 03 04 fe 08 fb 05 fc 13 00 01 01 01 f7 0b 14 07
       3 4 -2 8 -5 5 -4 19 0 1 1 1 -9 11 20 7

functional_1/dense_1/MatMul i1 [128, 128]
000000 06 08 01 fe 06 f6 fa 01 03 fd fc 03 fe fe 0d 00
       6 8 1 -2 6 -10 -6 1 3 -3 -4 3 -2 -2 13 0
000010 04 0d fb 03 02 fe fc ff fe fc ff 16 fc 02 fd eb
       4 13 -5 3 2 -2 -4 -1 -2 -4 -1 22 -4 2 -3 -21
000020 02 ff 00 08 fe 06 08 00 ec 02 00 02 01 fd fc ef
       2 -1 0 8 -2 6 8 0 -20 2 0 2 1 -3 -4 -17
000030 fc 08 04 ff 04 02 00 fa fc fe f2 fe 02 fc 04 01
       -4 8 4 -1 4 2 0 -6 -4 -2 -14 -2 2 -4 4 1
000040 00 01 fa 08 ee f7 0c f3 00 04 ff f2 fe f9 fa fb
       0 1 -6 8 -18 -9 12 -13 0 4 -1 -14 -2 -7 -6 -5
000050 07 00 fa 03 fd fb f8 14 f8 05 04 f8 04 ff 01 15
       7 0 -6 3 -3 -5 -8 20 -8 5 4 -8 4 -1 1 21
000060 03 16 06 00 f7 fe 03 ff 13 fe ff f7 fc fb fc 17
       3 22 6 0 -9 -2 3 -1 19 -2 -1 -9 -4 -5 -4 23
000070 f8 ff fe f4 07 ff ff f9 0c 01 00 fa ef f2 ff 07
       -8 -1 -2 -12 7 -1 -1 -7 12 1 0 -6 -17 -14 -1 7
000080 01 f7 00 00 f9 00 ff 00 01 01 ff 00 ff 02 ff 01
       1 -9 0 0 -7 0 -1 0 1 1 -1 0 -1 2 -1 1
000090 fe 00 fe 02 00 00 ff 03 ff ff ff ff 00 ff fc 00
       -2 0 -2 2 0 0 -1 3 -1 -1 -1 -1 0 -1 -4 0
0000a0 fe 00 ff 02 01 01 fd 00 ff 00 00 ff fe fd 02 00
       -2 0 -1 2 1 1 -3 0 -1 0 0 -1 -2 -3 2 0
0000b0 03 01 01 02 fe fe 01 01 ff 01 fe 02 ff fe 01 01
       3 1 1 2 -2 -2 1 1 -1 1 -2 2 -1 -2 1 1
0000c0 01 03 04 ff 00 03 ff f9 02 01 00 ff fe 01 02 fe
       1 3 4 -1 0 3 -1 -7 2 1 0 -1 -2 1 2 -2
0000d0 ff 00 01 00 01 01 ff 02 fd ff 01 f9 fe 00 ff 00
       -1 0 1 0 1 1 -1 2 -3 -1 1 -7 -2 0 -1 0
0000e0 02 00 01 02 06 00 00 01 00 03 fe 00 fe fb 00 00
       2 0 1 2 6 0 0 1 0 3 -2 0 -2 -5 0 0
0000f0 05 fe ff 01 02 02 00 fd 00 00 01 04 fc 02 05 01
       5 -2 -1 1 2 2 0 -3 0 0 1 4 -4 2 5 1

functional_1/dense_4/MatMul i1 [8, 128]
000000 03 fa fe ff fd f6 27 fa 01 f8 fc 04 00 02 0a f7
       3 -6 -2 -1 -3 -10 39 -6 1 -8 -4 4 0 2 10 -9
000010 f6 00 02 ed 09 ff fb 09 03 00 07 f6 05 09 ff 01
       -10 0 2 -19 9 -1 -5 9 3 0 7 -10 5 9 -1 1
000020 01 c8 ed f8 00 fd f9 eb 02 f2 f9 06 02 06 01 03
       1 -56 -19 -8 0 -3 -7 -21 2 -14 -7 6 2 6 1 3
000030 fd fe 01 f0 0b 00 fd f4 fe f7 04 1b fe 01 fc 03
       -3 -2 1 -16 11 0 -3 -12 -2 -9 4 27 -2 1 -4 3
000040 03 06 21 d6 07 f4 fe fc 12 05 f9 fe f7 01 ed 02
       3 6 33 -42 7 -12 -2 -4 18 5 -7 -2 -9 1 -19 2
000050 09 fc f2 0e 05 05 01 fb f7 00 e4 f4 fd 08 02 e8
       9 -4 -14 14 5 5 1 -5 -9 0 -28 -12 -3 8 2 -24
000060 fa fd fc 00 02 f0 ff 0e 00 fa f7 d2 ff fe 0a f4
       -6 -3 -4 0 2 -16 -1 14 0 -6 -9 -46 -1 -2 10 -12
000070 01 07 07 20 0a fa fd 00 ff ff 37 f4 ef 03 00 02
       1 7 7 32 10 -6 -3 0 -1 -1 55 -12 -17 3 0 2
000080 01 14 fc 01 2e 07 ff ee fc f2 02 01 01 01 fd 03
       1 20 -4 1 46 7 -1 -18 -4 -14 2 1 1 1 -3 3
000090 04 00 02 f6 fc ea 01 04 04 ff fc 02 00 fe 00 f2
       4 0 2 -10 -4 -22 1 4 4 -1 -4 2 0 -2 0 -14
0000a0 00 04 f7 00 ff 00 00 f4 01 00 03 00 03 f5 f2 c1
       0 4 -9 0 -1 0 0 -12 1 0 3 0 3 -11 -14 -63
0000b0 ff 02 00 f6 f9 01 fd 05 1a fb fd 04 4d e8 14 fc
       -1 2 0 -10 -7 1 -3 5 26 -5 -3 4 77 -24 20 -4
0000c0 ec fc 03 05 03 01 06 00 ee 81 f2 fc 07 02 00 fc
       -20 -4 3 5 3 1 6 0 -18 -127 -14 -4 7 2 0 -4
0000d0 0a 03 fd f9 ff fe 00 05 09 04 ff ff fb 0b 00 01
       10 3 -3 -7 -1 -2 0 5 9 4 -1 -1 -5 11 0 1
0000e0 00 f5 02 fe ff f9 ff ff 1d f2 07 fb 01 00 fd 00
       0 -11 2 -2 -1 -7 -1 -1 29 -14 7 -5 1 0 -3 0
0000f0 00 07 f3 03 ff 00 04 02 19 01 fe fe fa 04 00 00
       0 7 -13 3 -1 0 4 2 25 1 -2 -2 -6 4 0 0

functional_1/dense_7/BiasAdd/ReadVariableOp/resource f4 [128]
000000 11 3a 88 3d 9b d8 10 3f c1 42 ba be 58 71 04 3e
       0.066517 0.56580514 -0.36379054 0.12933862
000010 b5 05 84 be ef 5c 3c 3d 6d 2b 7a be 4b 91 c0 3e
       -0.25785604 0.045987066 -0.24430628 0.3761085
000020 46 b1 57 3e 81 5b 1b bf 94 38 31 3f 0f 0e 92 3f
       0.21063718 -0.606865 0.69226956 1.141054
000030 b5 bb 03 40 e1 1c 7d 3e 61 ee 43 3e 35 e4 ba 3f
       2.0583317 0.24718048 0.19133903 1.4600893
000040 6f 2e 03 3d 14 17 e8 bc f9 39 77 3d e5 9c 6a be
       0.032026704 -0.028331317 0.06035802 -0.22911413
000050 fa 7c 89 3e 63 fe 3c 3f 45 01 da be 64 0e 36 3f
       0.26853162 0.73825663 -0.42579094 0.7111571
000060 3a 74 21 3d be d2 c5 3e 8a a0 60 3f 31 64 cd be
       0.039417483 0.38637346 0.87744963 -0.40115502
000070 9e d0 81 bf b6 d2 ea 3e e0 ff 13 bd b0 25 9b 3e
       -1.014179 0.45863885 -0.036132693 0.3030219
000080 2b d4 66 3e 83 27 96 bf 27 54 79 bf 5b ae 5f bd
       0.22541873 -1.1730808 -0.9739403 -0.054609638
000090 d0 ff dd be c8 e2 19 3f e3 1f 06 3e 76 8b 50 be
       -0.43359232 0.60111666 0.13098101 -0.203657
0000a0 80 df a2 3f 52 31 20 3e 63 1a ba 3f 88 68 e6 3d
       1.2724457 0.15643814 1.4539303 0.112504065
0000b0 2c 34 62 3e b0 d5 98 be 45 51 dc 3e 64 5e b8 3e
       0.22090214 -0.2985053 0.43030754 0.36009514
0000c0 d6 8f 44 3f 40 21 71 3f 86 f8 f1 be a9 85 3b 3e
       0.76781976 0.9419136 -0.4725992 0.18312706
0000d0 b4 55 06 3f 57 11 09 bf 5b ae df 3e e4 a7 02 3f
       0.5247452 -0.53542084 0.4368771 0.5103743
0000e0 40 21 71 bf b4 e9 86 bf a0 75 e7 3e 80 fb 1f 3f
       -0.9419136 -1.054007 0.45206928 0.62493134
0000f0 32 74 c6 3c f6 d4 1a 3f 84 7b 8d 3f cb 8a 88 3f
       0.024225328 0.604812 1.1053319 1.0667356
000100 a6 65 49 be 6e ce 87 3f a6 65 49 be d9 37 33 bf
       -0.19667682 1.0609872 -0.19667682 -0.7000709
000110 87 eb 01 3f 95 48 2a be a6 65 c9 be 6d da 8b bf
       0.5075001 -0.1662925 -0.39335364 -1.0926033
000120 1c 9f 3f bf 96 a8 25 3f 4b 91 c0 be 86 20 73 bf
       -0.74852157 0.64710367 -0.3761085 -0.949715
000130 eb dc ce 3e 11 12 07 3f 25 27 17 bf 63 ae 3a bd
       0.40402922 0.5276194 -0.59044105 -0.045576464
000140 21 8b ac 3f 3d e4 15 3f 0c 10 1f 40 0c c6 9e bf
       1.3479959 0.5855139 2.4853544 -1.2404189
000150 50 21 a7 3f 45 79 5d 3f f3 dc a9 bd 9d 48 05 bf
       1.3057041 0.8651317 -0.08294096 -0.52063924
000160 4c f1 3b bf 68 8e 23 3e 63 ae ba 3d 3a 74 a1 bb
       -0.73415065 0.15972292 0.09115293 -0.0049271854
000170 86 1f 07 c0 54 f1 16 be 9b 45 fc 3d 1c 17 c3 3c
       -2.111299 -0.14740497 0.12317964 0.02381473
000180 e2 7c 78 be e3 dc f3 3d 57 2e f2 bc 91 18 bf 3e
       -0.24266389 0.11907365 -0.029563112 0.3732343
000190 56 b1 0d 3f 4c f1 3b be 69 5a 9e 3f 68 b6 a4 3f
       0.5534872 -0.18353766 1.2371341 1.2868166
0001a0 41 d1 6e be e0 ff 93 3e b5 b5 81 3e 93 b0 34 3f
       -0.23322012 0.28906155 0.25333944 0.7058193
0001b0 d0 ff dd bd d2 97 53 3f 7a bb bb 3e 86 1f 87 3f
       -0.10839808 0.82653534 0.3666647 1.0556495
0001c0 aa 0d 38 3f b1 35 94 3e 2a 57 82 bd 2c 34 62 3e
       0.7189585 0.28947213 -0.063642815 0.22090214
0001d0 8e 20 4e bf 86 8b 86 3f 3a 74 a1 3a 3b d4 1c be
       -0.80518425 1.0511329 0.0012317963 -0.15315334
0001e0 51 81 a2 be c9 f2 12 40 6b ae 15 be bf 32 c1 3e
       -0.31739286 2.2960684 -0.14617316 0.3773403
0001f0 03 de cb 3f df 9f 98 3e 5a 32 e7 bf 82 0b 19 bf
       1.5927128 0.29809472 -1.8062241 -0.59783185

functional_1/dense_1/BiasAdd/ReadVariableOp/resource f4 [128]
000000 85 0e e0 3f 36 d9 c2 bb b2 39 98 bc d9 d0 e2 bd
       1.7504431 -0.0059463037 -0.018582199 -0.11074991
000010 4d 4c 2e bf bf 32 04 c0 7c fd c3 3e 84 8f f3 bc
       -0.68085176 -2.0655973 0.3827933 -0.02973152
000020 84 8f 73 3c c9 06 cf 3d 8b 1a b2 bd 9b a8 13 be
       0.01486576 0.10108716 -0.08696469 -0.14419787
000030 4d 2e 95 3e 9b e4 c5 bd c9 e8 35 3e 3e dc 65 3e
       0.29136887 -0.09662744 0.17764582 0.22447297
000040 aa ae 59 3e 2e 12 d2 3d 27 0f af 3e 00 d2 2f 3e
       0.21258035 0.10257374 0.34191248 0.17169952
000050 46 67 a4 3e 8b fc 98 3e 93 e1 22 be a3 ab 36 bd
       0.3211004 0.29880175 -0.15906362 -0.04459728
000060 93 52 16 3f 27 0f 2f bf e8 22 12 bb aa ae 59 be
       0.5871975 -0.68382496 -0.0022298638 -0.21258035
000070 a3 58 5c 3f 3e dc e5 be 08 99 20 3e 4d a6 f9 bc
       0.8607275 -0.44894594 0.15683377 -0.030474806
000080 d1 cd 3f 3d 8b e5 70 bf e8 5e 44 3e 00 43 a3 3e
       0.04682714 -0.94100255 0.19176829 0.31887054
000090 3e 82 1a 3e 36 9d 10 be 3e fa 7e be c9 06 cf 3d
       0.15088746 -0.14122471 -0.24900147 0.10108716
0000a0 9b e4 45 be b2 39 98 3d 26 4b e1 3d c9 06 4f bc
       -0.19325487 0.074328795 0.110006616 -0.012635895
0000b0 84 a6 9b bf 1f 2a 25 3e aa 54 0e 3f 93 c3 89 bf
       -1.2160192 0.16129349 0.5559794 -1.076281
0000c0 f8 ec a5 bd 17 81 cd bd f0 e9 82 be 65 bf 19 be
       -0.08101839 -0.100343876 -0.25569105 -0.15014417
0000d0 c9 24 68 be f8 ec a5 3f a3 e7 e8 3d ae ac b2 bf
       -0.22670282 1.2962942 0.11372306 -1.3958948
0000e0 26 4b e1 3c c9 ca 1c 3f 27 0f af 3d 46 49 0b be
       0.027501654 0.61246926 0.08547812 -0.1360217
0000f0 d1 91 0d be 42 0f 00 bf 9f e2 1e 3f aa 72 a7 bd
       -0.13825156 -0.5002328 0.62064546 -0.08176167
000100 55 4f d1 3e 74 18 ba 3e c9 ca 9c 3e 93 1d d5 bd
       0.40880838 0.3634678 0.30623463 -0.104060315
000110 2e f4 38 3e 26 4b 61 be 9b a8 13 3e 07 d5 52 3e
       0.18061897 -0.22001323 0.14419787 0.20589076
000120 26 4b e1 bd 84 8f f3 bd 72 3f 82 3f 07 d5 52 3e
       -0.110006616 -0.11892608 1.0175612 0.20589076
000130 5d a5 ce 3e ba 00 89 3d c2 21 45 be 32 81 9e bf
       0.40360537 0.06689592 -0.19251159 -1.2383177
000140 d1 cd 3f 3d e8 22 12 be 00 43 a3 3e aa ae 59 be
       0.04682714 -0.14271128 0.31887054 -0.21258035
000150 e1 cc 14 c0 5d 52 74 be c9 06 cf be f8 28 d8 3d
       -2.3250048 -0.23859544 -0.40434864 0.10554689
000160 f0 25 b5 3e 65 30 8d be 7c 50 9e be 4d 9f 08 bf
       0.35380507 -0.27575985 -0.3092078 -0.53368074
000170 b2 e6 bd be f8 28 d8 bd 9b a8 13 3e c9 e8 35 be
       -0.3709007 -0.10554689 0.14419787 -0.17764582
000180 1f 48 be 3e 2e d6 9f be 32 f2 11 bf d1 cd bf 3d
       0.371644 -0.31218094 -0.57010186 0.09365428
000190 b2 39 98 3c 3e a0 b3 bd 36 d9 c2 3c ba 3c bb bd
       0.018582199 -0.08770798 0.023785215 -0.09142442
0001a0 27 0f 2f be 93 1d d5 3d 6c c2 bc 3c 5d 69 9c bf
       -0.17095624 0.104060315 0.023041926 -1.2219654
0001b0 ba 78 ed 3d f0 61 e7 bc ba ad ae 3f f0 25 b5 3d
       0.115952924 -0.028244942 1.3646767 0.08845127
0001c0 00 9d ee 3e 5d 52 74 be 4d 2e 95 bd 84 8f 73 3b
       0.46604156 -0.23859544 -0.07284222 0.00371644
0001d0 ba cb 47 3f d9 94 b0 3e 6c fe ee 3e 6c e0 55 be
       0.7804524 0.34488562 0.46678483 -0.20886391
0001e0 c9 59 a9 3e 3e dc 65 3e 4d bd a1 3e 55 f5 85 3c
       0.33076313 0.22447297 0.31589738 0.016352335
0001f0 64 19 65 3e c9 06 cf bc 74 36 d3 3e 51 f7 ac bf
       0.22372967 -0.02527179 0.41252482 -1.3512975

functional_1/dense_4/BiasAdd/ReadVariableOp/resource f4 [8]
000000 56 f8 09 40 f5 35 1f 40 e6 6e 1a 40 c2 a5 1a 40
       2.1557822 2.4876683 2.4130187 2.416367
000010 c8 af fb 3f e5 e2 0e 40 94 ad 2e 40 a9 fe 00 40
       1.9663019 2.2325985 2.7293444 2.0155432

functional_1/dense_8/MatMul i1 [128, 128]
000000 17 f1 0d 17 12 fa 06 0a 0c ca 13 15 01 41 f1 13
       23 -15 13 23 18 -6 6 10 12 -54 19 21 1 65 -15 19
000010 08 fb eb f3 f4 e5 f2 dc 18 09 eb e3 d1 05 e6 0a
       8 -5 -21 -13 -12 -27 -14 -36 24 9 -21 -29 -47 5 -26 10
000020 13 14 fa 0a 02 07 ff f3 f8 ea 03 12 fd 31 b9 d4
       19 20 -6 10 2 7 -1 -13 -8 -22 3 18 -3 49 -71 -44
000030 f8 fe ed fa 04 1d fb 1f eb 0e fd f9 01 f5 1a 12
       -8 -2 -19 -6 4 29 -5 31 -21 14 -3 -7 1 -11 26 18
000040 0a fe f9 f2 13 d6 fd fc f1 f7 fb 0e db 4f 27 18
       10 -2 -7 -14 19 -42 -3 -4 -15 -9 -5 14 -37 79 39 24
000050 0e ef fa 03 01 11 1e 05 0b 09 13 17 1c 09 0e eb
       14 -17 -6 3 1 17 30 5 11 9 19 23 28 9 14 -21
000060 31 2d 23 ea f9 e0 f4 25 00 04 db 0d d2 f4 01 08
       49 45 35 -22 -7 -32 -12 37 0 4 -37 13 -46 -12 1 8
000070 fb 08 2e 0a 16 f2 fb c4 0f ea fd f2 04 00 e5 09
       -5 8 46 10 22 -14 -5 -60 15 -22 -3 -14 4 0 -27 9
000080 ff 0c f2 0f f4 f5 09 02 f5 04 03 0c ef f4 03 fb
       -1 12 -14 15 -12 -11 9 2 -11 4 3 12 -17 -12 3 -5
000090 e3 0b ed 05 f9 fc 06 06 da f8 05 04 12 f1 ff 04
       -29 11 -19 5 -7 -4 6 6 -38 -8 5 4 18 -15 -1 4
0000a0 e9 fd f8 ec fe f4 f2 eb 04 fe 01 04 e1 05 06 01
       -23 -3 -8 -20 -2 -12 -14 -21 4 -2 1 4 -31 5 6 1
0000b0 05 0e 1d ee 0a fe ff e1 fc 0f 0e f7 0f 06 de 02
       5 14 29 -18 10 -2 -1 -31 -4 15 14 -9 15 6 -34 2
0000c0 fd 1a 08 f8 fc ff 06 01 f5 05 11 fe ca e8 f4 0a
       -3 26 8 -8 -4 -1 6 1 -11 5 17 -2 -54 -24 -12 10
0000d0 00 f1 0d fe f9 01 1a df 06 e9 08 f9 f2 06 f0 10
       0 -15 13 -2 -7 1 26 -33 6 -23 8 -7 -14 6 -16 16
0000e0 f3 e9 fe e3 0e fc 0c e2 eb fa 07 ed f8 0b f4 f6
       -13 -23 -2 -29 14 -4 12 -30 -21 -6 7 -19 -8 11 -12 -10
0000f0 e2 05 f7 ea fb fb 08 f5 c9 10 e5 fb f3 13 06 01
       -30 5 -9 -22 -5 -5 8 -11 -55 16 -27 -5 -13 19 6 1

functional_1/dense_2/MatMul i1 [128, 128]
000000 ff 00 03 ff fd 00 07 02 00 00 fd 05 ff 01 fd 03
       -1 0 3 -1 -3 0 7 2 0 0 -3 5 -1 1 -3 3
000010 fe ff 00 01 ff 04 ff 05 01 fe ff ff 00 fd 01 fe
       -2 -1 0 1 -1 4 -1 5 1 -2 -1 -1 0 -3 1 -2
000020 00 00 f3 fb 00 01 03 ff 03 fd 01 fd 01 fd fe 00
       0 0 -13 -5 0 1 3 -1 3 -3 1 -3 1 -3 -2 0
000030 fd 00 f7 03 fe fe 00 fd fd 00 ff 01 fe 00 00 01
       -3 0 -9 3 -2 -2 0 -3 -3 0 -1 1 -2 0 0 1
000040 04 01 00 fe fc fc ff 03 ff ff ff fe 02 fd 01 00
       4 1 0 -2 -4 -4 -1 3 -1 -1 -1 -2 2 -3 1 0
000050 01 05 00 00 00 ff 01 00 02 01 00 05 fe fb fd 02
       1 5 0 0 0 -1 1 0 2 1 0 5 -2 -5 -3 2
000060 03 fd 00 ff fe 00 fe 00 00 01 00 ff fe ff f2 00
       3 -3 0 -1 -2 0 -2 0 0 1 0 -1 -2 -1 -14 0
000070 fe ff 04 f8 f7 fc 00 01 00 fd fe fd 00 f9 03 00
       -2 -1 4 -8 -9 -4 0 1 0 -3 -2 -3 0 -7 3 0
000080 00 ff 00 02 fd 01 ff 01 01 ff 00 fd 01 00 fc 01
       0 -1 0 2 -3 1 -1 1 1 -1 0 -3 1 0 -4 1
000090 06 ff 03 fe 00 01 fb fe 00 fd fd 01 00 fd fd fe
       6 -1 3 -2 0 1 -5 -2 0 -3 -3 1 0 -3 -3 -2
0000a0 ff 01 fc 01 04 fe fc fe 00 01 07 01 ff fb 05 00
       -1 1 -4 1 4 -2 -4 -2 0 1 7 1 -1 -5 5 0
0000b0 ff 00 03 03 02 01 00 00 00 ff fd 01 fd fc 00 01
       -1 0 3 3 2 1 0 0 0 -1 -3 1 -3 -4 0 1
0000c0 fe fe fa ff 02 fe ff ff fb fe fe 04 ff 01 02 00
       -2 -2 -6 -1 2 -2 -1 -1 -5 -2 -2 4 -1 1 2 0
0000d0 00 00 01 fb 00 06 01 ff ff 01 00 02 00 01 01 03
       0 0 1 -5 0 6 1 -1 -1 1 0 2 0 1 1 3
0000e0 fc ff 00 fb ff 01 f8 f8 01 01 fe fe fe ff f8 00
       -4 -1 0 -5 -1 1 -8 -8 1 1 -2 -2 -2 -1 -8 0
0000f0 fa ff 03 fe fe 01 01 fd 01 ff ff 02 ff 01 ff 01
       -6 -1 3 -2 -2 1 1 -3 1 -1 -1 2 -1 1 -1 1

functional_1/dense_5/MatMul i1 [128, 8]
000000 e4 fc da 00 fe 06 fc 11 eb f2 03 f8 fd 0b f8 19
       -28 -4 -38 0 -2 6 -4 17 -21 -14 3 -8 -3 11 -8 25
000010 0d 05 19 01 05 33 01 f7 ef fa f5 05 24 f9 fc 0b
       13 5 25 1 5 51 1 -9 -17 -6 -11 5 36 -7 -4 11
000020 f8 fd f3 00 f6 fa e9 ff 0c 01 f7 37 e1 fe 04 fc
       -8 -3 -13 0 -10 -6 -23 -1 12 1 -9 55 -31 -2 4 -4
000030 07 8d 1c ff 01 fe fc fd 20 ff 08 f1 fa db 04 04
       7 -115 28 -1 1 -2 -4 -3 32 -1 8 -15 -6 -37 4 4
000040 fe fc f7 fa f7 e2 fe 05 ef fc 05 e8 f6 13 09 14
       -2 -4 -9 -6 -9 -30 -2 5 -17 -4 5 -24 -10 19 9 20
000050 fb 51 ef 01 fc 05 01 02 08 31 fa fd fb fb fc f9
       -5 81 -17 1 -4 5 1 2 8 49 -6 -3 -5 -5 -4 -7
000060 ff ff 02 04 02 02 25 ff fd f8 f3 10 df 02 ff 25
       -1 -1 2 4 2 2 37 -1 -3 -8 -13 16 -33 2 -1 37
000070 fa 09 ff fc e5 fd 13 ef 09 fc f3 fb 07 0c 04 0b
       -6 9 -1 -4 -27 -3 19 -17 9 -4 -13 -5 7 12 4 11
000080 08 f8 e5 fe 14 ff eb 03 03 ff ec 0c 0d e1 fa 1c
       8 -8 -27 -2 20 -1 -21 3 3 -1 -20 12 13 -31 -6 28
000090 fe 00 00 03 fa db 0c f7 02 fd ce fd 0f fb 06 1c
       -2 0 0 3 -6 -37 12 -9 2 -3 -50 -3 15 -5 6 28
0000a0 1e 03 0b 0c e0 fb f9 15 0f 00 fc ff 0f d1 08 07
       30 3 11 12 -32 -5 -7 21 15 0 -4 -1 15 -47 8 7
0000b0 08 27 f9 08 f3 0a 03 fc e8 02 fa fb 1e fc 01 aa
       8 39 -7 8 -13 10 3 -4 -24 2 -6 -5 30 -4 1 -86
0000c0 11 bd 1a 00 fb fe fa f6 ff 01 f4 fe ff f2 15 ff
       17 -67 26 0 -5 -2 -6 -10 -1 1 -12 -2 -1 -14 21 -1
0000d0 04 fc fb fb fd 01 7f 04 03 fe f0 04 f8 f6 1a f0
       4 -4 -5 -5 -3 1 127 4 3 -2 -16 4 -8 -10 26 -16
0000e0 ee 02 0b e1 e5 f9 fd f8 fb 02 00 08 13 05 04 e5
       -18 2 11 -31 -27 -7 -3 -8 -5 2 0 8 19 5 4 -27
0000f0 15 fb f8 03 fc f3 01 e0 a1 fd 0c fb e0 c7 03 0c
       21 -5 -8 3 -4 -13 1 -32 -95 -3 12 -5 -32 -57 3 12

functional_1/dense_8/BiasAdd/ReadVariableOp/resource f4 [128]
000000 51 5e c7 bc 96 88 04 40 88 5b 28 40 c1 4e 37 40
       -0.024336966 2.0708365 2.6305866 2.8641818
000010 5c 40 e3 3e 03 f5 d9 3f eb 9f d3 3e 89 dc 3f 3f
       0.4438504 1.7027897 0.41332945 0.74945885
000020 bf 20 62 3f 2f 1d d3 3f 75 d9 11 3e 70 c1 46 3f
       0.88331217 1.6493281 0.1424311 0.7763891
000030 c0 fc a7 3f 6e 45 18 40 f0 a6 b4 3f 4b da 84 3f
       1.3124008 2.3792377 1.4113445 1.0379118
000040 ee a0 4f 40 57 d9 8b 3f c2 77 23 3f c5 22 da 3f
       3.2441974 1.0925702 0.6385461 1.7041861
000050 6e ba 2e 40 ca 02 fe 3f 0a 25 a7 3f 75 87 02 be
       2.7301288 1.9844601 1.3058178 -0.12746985
000060 22 58 d9 3e 49 bf 7f 3f 11 ba d3 be f9 5f e4 3e
       0.42450052 0.99901253 -0.41352895 0.4460447
000070 35 b7 e8 3f 74 24 09 40 5e 28 aa 3f 7f 9e c2 3f
       1.818091 2.14285 1.3293569 1.5204619
000080 59 73 d8 3f ca b0 ee 3e b6 ff 4f 3f 7a 26 01 3f
       1.6910201 0.46619254 0.8124956 0.50449336
000090 8c d0 87 3f 5f 64 e6 3f 43 f5 2e 3f 75 b7 3d 3f
       1.0610518 1.7999381 0.6834299 0.7410806
0000a0 2b 9b 3f 3f 5e 28 aa 3e 66 83 49 3f ca 02 fe 3f
       0.7484614 0.33233923 0.78716123 1.9844601
0000b0 12 07 fa 3e c6 0f 8a 3f 64 92 84 3e 6d 8c d9 3e
       0.4883352 1.0786064 0.25892937 0.4248995
0000c0 45 d8 0c 40 db c7 40 3f 9f a5 60 3f fe 7c 18 bf
       2.2007 0.75304955 0.8775272 -0.5956572
0000d0 dd df 42 3f 19 e0 ce 3f 14 cb 86 3f 09 b6 ac 3f
       0.7612284 1.6162139 1.0530725 1.3493053
0000e0 7c e7 0a 3f ed 87 9a 3f 1a ec cf 3f 29 66 d2 3f
       0.5425947 1.2072731 1.6243927 1.6437427
0000f0 18 a4 92 3f cb ae 08 40 56 f0 11 40 62 01 b6 3f
       1.1456327 2.1356685 2.280294 1.4219172
000100 98 40 6f 3f 1f 23 ec be fe 25 a0 3c 27 8f f5 3f
       0.9345794 -0.46120545 0.019549366 1.9184312
000110 3c 3e ae 3e 0e bd 8d 3f e7 fb 6b 3f d2 54 1f 3d
       0.34031856 1.107332 0.9218125 0.03889925
000120 8b c4 06 40 3f a3 56 3f 2f 1d d3 3f 60 62 80 3f
       2.105746 0.83842844 1.6493281 1.0030022
000130 8b 0a 95 3f f5 04 8e 3f 6e d0 01 bf 24 92 af 3f
       1.1643842 1.1095263 -0.50708663 1.3716474
000140 08 99 41 3f 63 ea 2f 40 4c 68 50 3f d3 f8 3d 3f
       0.7562413 2.7486808 0.81409144 0.742078
000150 11 9b 02 40 19 8e 3f 3f 5f 12 d7 3f 76 5b 5c 3f
       2.0407145 0.748262 1.6802481 0.8607706
000160 09 b6 ac 3e a8 d7 dc 3f 3e 78 84 3e b5 1a 0c 40
       0.33732632 1.7253313 0.25872988 2.18913
000170 fa fa 04 3f 50 f3 02 40 68 f1 10 40 77 21 cf 3e
       0.5194546 2.0461006 2.2647343 0.4045522
000180 45 d8 8c 3f f1 39 69 3f cb 0e ff 3f 6f 2e 92 3f
       1.10035 0.91104037 1.992639 1.142042
000190 67 6b 10 40 8d 3c ff 3f 7a 78 90 3f fc 42 42 3f
       2.2565553 1.9940354 1.1286767 0.7588346
0001a0 43 47 3e 3f 72 41 ab 3f be b1 e7 3f 78 b7 86 3f
       0.74327487 1.3379347 1.8101118 1.052474
0001b0 18 0d 28 40 2a a5 91 3f 00 95 1a 3f 3a be c9 3f
       2.6257992 1.1378529 0.60383606 1.5761178
0001c0 97 7a fc bd a2 a5 a9 3e 99 b4 d2 3e a0 6b 53 3f
       -0.1232807 0.3313418 0.4115341 0.825861
0001d0 d7 ad 8f 3f 13 f4 29 3f 38 65 22 3f a0 14 db be
       1.1224927 0.6638805 0.634357 -0.42789173
0001e0 ba 40 be 3f 58 9c 7b 3f 9f c7 34 3f 57 1a 31 3f
       1.4863503 0.98285437 0.706171 0.69180816
0001f0 d5 62 4f 3f 3e 51 47 3f 81 1e a7 3f 40 06 d0 3f
       0.8101018 0.7785834 1.3056184 1.6251907

functional_1/dense_2/BiasAdd/ReadVariableOp/resource f4 [128]
000000 3a 95 7e 3f 61 f5 01 3f a8 a1 2c be fc f5 91 3f
       0.9944645 0.50765043 -0.16858542 1.1403193
000010 01 45 b8 be 9d b7 09 3e 07 06 a0 3e 78 15 9e be
       -0.35990146 0.13448949 0.31254598 -0.30875754
000020 67 6a 13 3e 6a 47 f8 3b de ee 22 bd 4c 66 74 be
       0.14396058 0.0075768726 -0.039778583 -0.23867148
000030 67 6a 13 bd 82 b3 6a be 88 28 fc 3e 67 6a 13 3d
       -0.035990145 -0.2292004 0.49249673 0.035990145
000040 49 89 8f 3e 6c df 24 3f 54 73 b2 3d 7d 3e 59 3e
       0.28034428 0.64403415 0.08713403 0.21215244
000050 bd e2 fc bf f0 e5 83 3d 5f 5d 55 3e 41 7c 51 bd
       -1.9756695 0.064403415 0.208364 -0.05114389
000060 53 27 dc 3e 6a 47 f8 bc c0 0d 1f be b8 00 61 3d
       0.42998752 -0.03030749 -0.15532589 0.054932326
000070 3b 62 08 c0 49 89 8f 3d 38 de 84 3e b8 00 e1 bd
       -2.1309955 0.07008607 0.2595079 -0.10986465
000080 88 28 7c 3e 37 92 2e 3e 72 54 36 be b4 d7 a5 3e
       0.24624836 0.17047964 -0.17805651 0.3239113
000090 32 43 08 bf 49 89 8f 3d f3 c2 e8 3d de ee 22 bd
       -0.5322753 0.07008607 0.113653086 -0.039778583
0000a0 32 43 88 3f 7f d6 05 3e 9a 1f 5d bf 67 6a 13 3d
       1.0645506 0.13070105 -0.86376345 0.035990145
0000b0 ba 98 0d be 7f d6 05 3e 37 92 2e be 38 de 04 3f
       -0.13827792 0.13070105 -0.17047964 0.5190158
0000c0 67 6a 13 3e d7 2d bb 3e 60 a9 ab 3e 6a 47 f8 3c
       0.14396058 0.3655841 0.3352766 0.03030749
0000d0 37 92 2e 3e be 75 f2 3e 2c a8 0b 3e 19 b1 2a bd
       0.17047964 0.47355455 0.13638371 -0.0416728
0000e0 0e c7 07 bf 2c a8 0b bf d3 04 00 be 6a 47 f8 ba
       -0.5303811 -0.54553485 -0.1250184 -0.0018942181
0000f0 55 bf 88 bf f3 c2 68 3d cb f7 41 be 0e c7 07 be
       -1.068339 0.056826543 -0.18942182 -0.13259527
000100 4c 66 f4 bd 2f 85 f0 3d 54 73 32 3e f3 c2 68 3e
       -0.11933574 0.11744153 0.17426807 0.22730617
000110 96 f6 a1 3e ca ab eb be 88 28 fc 3d c1 33 0a 3f
       0.31633443 -0.46029502 0.12312418 0.5398522
000120 38 de 84 be 19 b1 aa bc de ee a2 bd f3 c2 68 3d
       -0.2595079 -0.0208364 -0.079557166 0.056826543
000130 6a 47 f8 3d f6 80 00 3f 85 4b 17 be 88 28 7c 3e
       0.12122996 0.5019678 -0.14774902 0.24624836
000140 67 6a 13 3d 9a 1f dd bd c7 ce 86 be 85 4b 17 3e
       0.035990145 -0.10797043 -0.26329634 0.14774902
000150 19 b1 2a 3e 54 73 b2 3d a2 2c 1b 3c 7d 3e d9 3d
       0.1666912 0.08713403 0.0094710905 0.10607622
000160 67 6a 13 bd 4f 24 0c 3f c7 ce 06 3f de ee 22 3e
       -0.035990145 0.547429 0.5265927 0.15911433
000170 c7 ce 86 be 2c a8 0b bd de ee 22 be 4c 66 f4 3d
       -0.26329634 -0.034095928 -0.15911433 0.11933574
000180 47 f1 62 be c0 0d 1f be 60 a9 ab 3e 01 45 b8 be
       -0.22162353 -0.15532589 0.3352766 -0.35990146
000190 ad 16 be bd c5 82 30 3e 00 00 00 00 a2 2c 9b bd
       -0.09281669 0.17237385 0.0 -0.075768724
0001a0 e4 af 8a 3e 0e c7 87 3d de ee 22 bd e3 63 34 3e
       0.2708732 0.066297635 -0.039778583 0.17616229
0001b0 7d 3e 59 bc 7d 3e 59 3d 7f d6 05 3e 61 f5 01 be
       -0.013259527 0.05303811 0.13070105 -0.12691261
0001c0 fc f5 11 3f 2f 85 70 3d 5a e8 43 be 5a e8 c3 3e
       0.5701597 0.058720764 -0.19131604 0.38263208
0001d0 8a c0 28 3e d8 79 91 3e 41 7c 51 bd f3 c2 e8 bc
       0.16479698 0.28413272 -0.05114389 -0.028413272
0001e0 2f 85 70 bd 85 4b 17 3e 6c df 24 3e 78 15 9e be
       -0.058720764 0.14774902 0.16100854 -0.30875754
0001f0 1e 26 bc 3e 7d 3e d9 3c 02 91 8e 3f 6a 47 f8 3b
       0.3674783 0.026519055 1.1138003 0.0075768726

functional_1/dense_5/BiasAdd/ReadVariableOp/resource f4 [128]
000000 20 15 29 40 c4 e5 99 3f 7e d5 bd c0 bc 2f 8d bf
       2.6419144 1.2023244 -5.932311 -1.1030192
000010 aa e2 82 40 df 5c e0 bf ed b5 b6 40 c2 0d 0b 3f
       4.090169 -1.7528342 5.7097077 0.5431787
000020 ce c2 66 40 60 98 f1 bd de dd 95 c0 49 3e 0a c0
       3.60564 -0.11796641 -4.6833334 -2.1600516
000030 4a 6b 30 c0 bc c3 85 be ff 4c bd 3f 5a 99 a2 bf
       -2.7565484 -0.26125896 1.4789122 -1.2703049
000040 15 4e 12 40 9f 8e e1 3e 49 88 06 40 f0 8a d2 3e
       2.2860157 0.44054124 2.1020682 0.41121626
000050 ca 6e 00 c0 29 21 87 3f dd 62 46 c0 ee 30 86 40
       -2.006762 1.0556995 -3.0997841 4.193473
000060 c2 8f 48 40 11 5e d9 3e 28 46 05 c1 a5 d8 66 3f
       3.1337743 0.4245458 -8.329628 0.90174323
000070 40 2a 84 40 26 e8 0b be 33 32 1a 40 da a7 0d 41
       4.1301575 -0.13662776 2.409314 8.853479
000080 7b 86 8c 40 a1 f0 07 c0 0b f3 82 3f a5 2d 7e 40
       4.391416 -2.1240618 1.0230421 3.971536
000090 e4 02 9d 40 0e c8 9e c0 a6 c2 30 40 e5 b8 a0 bf
       4.906603 -4.9619207 2.7618804 -1.2556425
0000a0 e3 96 15 40 14 2c 07 c0 71 27 d0 3f 81 6b f8 3e
       2.3373344 -2.1120653 1.6262037 0.4851952
0000b0 06 8c a7 be dd 57 2b 40 35 54 25 40 a4 00 d8 be
       -0.32724017 2.6772377 2.5832646 -0.4218799
0000c0 dc ac 42 c0 17 26 21 40 14 e2 0a c0 3f c5 ea bf
       -3.0418005 2.5179498 -2.1700487 -1.8341445
0000d0 05 41 71 bf 7a 94 9a 3e 2a 0f cc 3f d6 62 bd c0
       -0.94239837 0.30191404 1.5942128 -5.918315
0000e0 c3 6a ca c0 db ea e9 bf c1 ac 1e bf c8 62 ab 3f
       -6.3255324 -1.8274797 -0.6198235 1.3389521
0000f0 ee b2 43 c0 a3 a3 98 c0 41 e8 af bf 4e 87 d5 3f
       -3.057796 -4.769975 -1.3742753 1.6681917
000100 2d 9e 98 40 57 c0 59 40 30 e2 2e bf 99 d9 0e c0
       4.7693086 3.4023645 -0.68313885 -2.232031
000110 40 10 21 40 7f 27 e2 bf 70 96 ca 40 34 0d 9c c0
       2.5166168 -1.7668303 6.330864 -4.8766117
000120 66 55 1e c0 70 bb 48 c0 45 a7 95 40 82 c1 49 c0
       -2.4739623 -3.1364403 4.6766686 -3.1524358
000130 59 0b 90 40 42 79 b5 c0 bb b4 bd c0 c8 6d 46 3f
       4.501385 -5.671052 -5.928312 0.7751126
000140 bb 0d 02 c0 ae 5b e7 3e 78 32 74 40 93 66 5e 40
       -2.032088 0.45187134 3.8155804 3.4750106
000150 92 23 82 40 46 d4 bb 40 c5 d3 de be 1c 04 1f c0
       4.066842 5.8696623 -0.43520942 -2.4846258
000160 f3 63 1b c0 4e 71 9f bf 63 1c 23 bf 05 41 f1 3e
       -2.4279754 -1.2456453 -0.6371519 0.47119918
000170 31 04 3a c0 37 0f de 40 f9 0d 53 3f d5 f6 35 40
       -2.9065058 6.9393573 0.82443196 2.8431904
000180 d4 04 c4 40 b7 51 0f bf 82 b6 2e 3a 44 2c c6 3f
       6.1255894 -0.5598406 0.0006664769 1.5482259
000190 77 7c 70 40 5f 9f 91 c0 05 ec 59 c0 9e 0c a4 c0
       3.7575967 -4.5507045 -3.4050305 -5.12654
0001a0 42 49 9c 3f 07 ed 93 3f ac 56 32 40 81 3f 8c 3e
       1.2209857 1.155671 2.78654 0.273922
0001b0 03 69 62 3f d5 c2 6f c0 76 83 10 3f 91 9d 97 40
       0.88441485 -3.7462666 0.56450593 4.737984
0001c0 2b 31 57 c0 f5 fc 48 3f 8d 7d c5 bf c7 0c da be
       -3.362376 0.7851098 -1.542894 -0.42587873
0001d0 f0 7f 37 40 56 e8 4a 40 f4 cf a2 40 64 93 45 3f
       2.8671837 3.1704307 5.087885 0.77178025
0001e0 ee c8 79 be e5 f0 61 40 62 44 14 bf 40 26 57 bf
       -0.24393055 3.530328 -0.57916844 -0.8404274
0001f0 2a d4 97 c0 db ea 69 c0 28 cb 35 40 a2 67 aa 40
       -4.744649 -3.6549594 2.8405247 5.3251505

functional_1/dense/MatMul i1 [128, 640]
000000 0a 0d f4 07 04 fe f3 ec fc 12 04 fe 01 fb f8 ff
       10 13 -12 7 4 -2 -13 -20 -4 18 4 -2 1 -5 -8 -1
000010 fd 09 fe fe fe 01 fd fb f7 01 00 fd f4 ef f0 f2
       -3 9 -2 -2 -2 1 -3 -5 -9 1 0 -3 -12 -17 -16 -14
000020 f1 fd ff fb fd f8 fb fa 01 fc 07 00 f9 03 06 03
       -15 -3 -1 -5 -3 -8 -5 -6 1 -4 7 0 -7 3 6 3
000030 02 01 03 02 04 ff fc 01 01 07 08 02 fc 04 0c fc
       2 1 3 2 4 -1 -4 1 1 7 8 2 -4 4 12 -4
000040 01 08 02 02 02 03 06 08 01 03 0b 09 04 05 0b 07
       1 8 2 2 2 3 6 8 1 3 11 9 4 5 11 7
000050 04 ff 03 05 03 fa 00 06 03 fa 0e 0e fc fa fd 00
       4 -1 3 5 3 -6 0 6 3 -6 14 14 -4 -6 -3 0
000060 fa fb 00 fa fc f9 fb f7 fd 02 fa 03 fd f5 fe fd
       -6 -5 0 -6 -4 -7 -5 -9 -3 2 -6 3 -3 -11 -2 -3
000070 05 fe 08 fe 14 03 fe 04 08 06 06 00 04 05 fd 02
       5 -2 8 -2 20 3 -2 4 8 6 6 0 4 5 -3 2
000080 09 0b f4 08 07 fd f4 ed ff 12 04 fd ff f8 f6 fe
       9 11 -12 8 7 -3 -12 -19 -1 18 4 -3 -1 -8 -10 -2
000090 fb 0b fd fe 02 ff fa f5 f5 01 fe 00 f7 ee f3 f1
       -5 11 -3 -2 2 -1 -6 -11 -11 1 -2 0 -9 -18 -13 -15
0000a0 f2 fc fa fc fb f5 f8 f9 fe fd 08 fe f4 fb 04 03
       -14 -4 -6 -4 -5 -11 -8 -7 -2 -3 8 -2 -12 -5 4 3
0000b0 01 02 01 ff fe 00 fa fb 01 09 07 00 fa 00 0a f9
       1 2 1 -1 -2 0 -6 -5 1 9 7 0 -6 0 10 -7
0000c0 00 05 00 02 01 ff 08 04 01 04 09 05 02 03 09 09
       0 5 0 2 1 -1 8 4 1 4 9 5 2 3 9 9
0000d0 07 02 fe fe 00 fc fd 05 01 fa 0c 0b fa fa fb fe
       7 2 -2 -2 0 -4 -3 5 1 -6 12 11 -6 -6 -5 -2
0000e0 f7 fd fe f9 f9 f8 f9 f6 fa fa f9 05 fa f4 fb fd
       -9 -3 -2 -7 -7 -8 -7 -10 -6 -6 -7 5 -6 -12 -5 -3
0000f0 00 fe 06 00 0c 00 fc fe 05 ff fe fc 03 01 fb fe
       0 -2 6 0 12 0 -4 -2 5 -1 -2 -4 3 1 -5 -2

functional_1/dense_9/MatMul i1 [640, 128]
000000 ef f0 f3 fa d3 04 cf e8 03 f3 fc fe c9 ed fc ef
       -17 -16 -13 -6 -45 4 -49 -24 3 -13 -4 -2 -55 -19 -4 -17
000010 e2 d4 fd 05 01 e5 fc ea dd e9 e4 f3 ea f7 d4 ee
       -30 -44 -3 5 1 -27 -4 -22 -35 -23 -28 -13 -22 -9 -44 -18
000020 fa 03 dc e4 f4 c7 f3 0c fb fa de c4 e0 c4 09 f5
       -6 3 -36 -28 -12 -57 -13 12 -5 -6 -34 -60 -32 -60 9 -11
000030 fe 04 10 df cb ff 0e f3 f9 d7 bc bf d2 ec c9 00
       -2 4 16 -33 -53 -1 14 -13 -7 -41 -68 -65 -46 -20 -55 0
000040 ea e4 e7 cf ec cf 08 e6 ed e6 d9 db f6 ba ee d2
       -22 -28 -25 -49 -20 -49 8 -26 -19 -26 -39 -37 -10 -70 -18 -46
000050 dc dd ff d7 fd f2 ba fd 17 f0 e0 d7 f2 e9 d6 fa
       -36 -35 -1 -41 -3 -14 -70 -3 23 -16 -32 -41 -14 -23 -42 -6
000060 f5 ff d5 ec f4 b1 19 f4 ed cf ea 16 0d e6 f6 01
       -11 -1 -43 -20 -12 -79 25 -12 -19 -49 -22 22 13 -26 -10 1
000070 fe cd e4 e7 f6 f6 f6 fe e6 08 e9 04 c5 f2 e3 f3
       -2 -51 -28 -25 -10 -10 -10 -2 -26 8 -23 4 -59 -14 -29 -13
000080 da f8 08 e8 fa e8 ed f0 f8 e1 e4 fc fd 01 ff f0
       -38 -8 8 -24 -6 -24 -19 -16 -8 -31 -28 -4 -3 1 -1 -16
000090 f2 c0 12 15 08 02 05 06 f2 ed ec f5 f5 43 07 f8
       -14 -64 18 21 8 2 5 6 -14 -19 -20 -11 -11 67 7 -8
0000a0 fd fe 01 e7 14 aa e7 0b 06 fe eb 02 e5 c4 fc 1f
       -3 -2 1 -25 20 -86 -25 11 6 -2 -21 2 -27 -60 -4 31
0000b0 1e fb 15 e8 ef 04 ff ff ec e3 cb d1 ee f8 c4 ef
       30 -5 21 -24 -17 4 -1 -1 -20 -29 -53 -47 -18 -8 -60 -17
0000c0 fe de f1 fb f1 c1 05 e0 c0 dd ff ef de f6 ed d6
       -2 -34 -15 -5 -15 -63 5 -32 -64 -35 -1 -17 -34 -10 -19 -42
0000d0 f8 fa 0e f9 1a e1 dc 0a 06 eb e6 d8 fd ef c4 ef
       -8 -6 14 -7 26 -31 -36 10 6 -21 -26 -40 -3 -17 -60 -17
0000e0 f7 f2 f3 02 c3 11 f6 e2 eb e3 e9 2e f7 e4 0f eb
       -9 -14 -13 2 -61 17 -10 -30 -21 -29 -23 46 -9 -28 15 -21
0000f0 f1 ee e9 f4 07 d9 00 02 ec 0c 02 01 c5 f9 d7 3a
       -15 -18 -23 -12 7 -39 0 2 -20 12 2 1 -59 -7 -41 58

functional_1/dense_6/MatMul i1 [128, 128]
000000 03 f8 14 04 fa f9 03 02 04 08 01 03 fa 05 01 03
       3 -8 20 4 -6 -7 3 2 4 8 1 3 -6 5 1 3
000010 00 07 fe f5 fa 0f fa fa fc f6 05 02 fe fd ff fe
       0 7 -2 -11 -6 15 -6 -6 -4 -10 5 2 -2 -3 -1 -2
000020 f9 06 02 fa 07 04 fa 08 fd 0b f7 03 fe 08 fe fd
       -7 6 2 -6 7 4 -6 8 -3 11 -9 3 -2 8 -2 -3
000030 05 f2 fd 04 f9 ff 02 01 f9 01 01 f4 fb 00 02 02
       5 -14 -3 4 -7 -1 2 1 -7 1 1 -12 -5 0 2 2
000040 f5 05 ff 03 fb fb 02 fc 08 f7 0c 03 02 fd fe fa
       -11 5 -1 3 -5 -5 2 -4 8 -9 12 3 2 -3 -2 -6
000050 00 fc fc fe 03 ff 0e 05 fe 02 fe f9 01 02 0b fb
       0 -4 -4 -2 3 -1 14 5 -2 2 -2 -7 1 2 11 -5
000060 03 ff 08 03 00 11 06 f8 fc f6 09 03 00 fb ff fd
       3 -1 8 3 0 17 6 -8 -4 -10 9 3 0 -5 -1 -3
000070 08 f4 03 00 04 02 0b 04 f8 08 02 06 07 11 00 fc
       8 -12 3 0 4 2 11 4 -8 8 2 6 7 17 0 -4
000080 04 01 0f ec fc fd 01 ff ea f2 ff 05 04 ef 03 05
       4 1 15 -20 -4 -3 1 -1 -22 -14 -1 5 4 -17 3 5
000090 00 f7 f7 05 f9 ec 03 fc 01 fb 00 fe 04 09 05 08
       0 -9 -9 5 -7 -20 3 -4 1 -5 0 -2 4 9 5 8
0000a0 f9 01 f8 ef f9 05 08 fa 00 04 f7 fe 05 04 fc 0f
       -7 1 -8 -17 -7 5 8 -6 0 4 -9 -2 5 4 -4 15
0000b0 ff 09 06 02 06 05 00 00 00 ff 02 fc 01 ff 02 f9
       -1 9 6 2 6 5 0 0 0 -1 2 -4 1 -1 2 -7
0000c0 fe 04 fc fb f7 fc 04 04 f3 12 fa 01 fe 01 05 01
       -2 4 -4 -5 -9 -4 4 4 -13 18 -6 1 -2 1 5 1
0000d0 00 fb 01 01 fa fc 05 03 02 04 fd 01 05 ff 0f 0c
       0 -5 1 1 -6 -4 5 3 2 4 -3 1 5 -1 15 12
0000e0 dd fe fa fe 00 fb 0a 08 f4 fb fa f9 fc 06 f1 fd
       -35 -2 -6 -2 0 -5 10 8 -12 -5 -6 -7 -4 6 -15 -3
0000f0 04 08 05 06 fa fd ed 02 fd 02 fe 06 06 01 09 fd
       4 8 5 6 -6 -3 -19 2 -3 2 -2 6 6 1 9 -3

functional_1/dense_9/BiasAdd/ReadVariableOp/resource f4 [640]
000000 07 b0 a6 bf 56 53 13 bf 5e ca a9 be 5f 87 4e 3c
       -1.3022469 -0.57549036 -0.33162206 0.012605517
000010 42 fb 0e bc a0 64 1b 3e ed ee 5b be 6c d3 24 bd
       -0.008726897 0.15175104 -0.21477862 -0.04024069
000020 00 00 00 00 2e cc 28 3d 45 32 fd bd 9d 8e 4a be
       0.0 0.041210346 -0.12363104 -0.19780965
000030 e5 4e 27 be cd cf a6 bc a8 b2 93 be d9 bf 75 be
       -0.1633869 -0.020362759 -0.2884724 -0.23998965
000040 ad 6d 96 be fc 10 03 be e6 0b 4c be 09 af 95 be
       -0.2938055 -0.12799448 -0.19926414 -0.29235104
000050 94 83 ad be 46 4b a9 be 47 b6 91 be aa da a0 be
       -0.3388945 -0.33065242 -0.2845938 -0.31416827
000060 e0 e5 e0 be 18 32 da be f8 12 25 bf 56 7c b1 be
       -0.4392538 -0.42616343 -0.6448207 -0.34665173
000070 c4 81 ae be 68 d5 c6 be 2a 39 b3 be 07 87 88 be
       -0.34083378 -0.3883469 -0.3500455 -0.26665518
000080 4b 06 ac be e4 e3 be be 57 39 d6 be 74 21 9d be
       -0.3359855 -0.37283242 -0.41840622 -0.30689585
000090 97 16 a3 be 93 18 c5 be 1d 82 f4 be ac 02 ae be
       -0.31853172 -0.3849531 -0.4775552 -0.33986413
0000a0 e9 f0 fd be 58 a4 be be fb f7 d6 be 61 34 01 bf
       -0.49597862 -0.3723476 -0.4198607 -0.5047055
0000b0 42 fb 0e bf 96 ab ba be 76 49 aa be 00 b3 d9 be
       -0.5585214 -0.36459035 -0.3325917 -0.4251938
0000c0 c2 30 03 bf 5d b1 fd be 7d c1 d1 be 8f c8 aa be
       -0.51246274 -0.4954938 -0.40967932 -0.3335614
0000d0 5b 37 b4 be 40 25 be be 62 1a c4 be 96 fd f6 be
       -0.35198483 -0.37137794 -0.38301378 -0.48240346
0000e0 f2 a9 de be 32 6e ff be b4 93 01 bf 41 67 08 bf
       -0.43489033 -0.4988876 -0.50616 -0.5328255
0000f0 73 8d 16 bf b1 0f ed be 75 8c 05 bf 9e d0 14 bf
       -0.58809584 -0.46301034 -0.52167445 -0.58130825
000100 d5 f4 00 bf 5d b1 fd be eb 74 12 bf df 28 3c bf
       -0.50373584 -0.4954938 -0.5720965 -0.73499864
000110 42 24 2d bf 79 48 19 bf bd 9e 1e bf 68 83 0a bf
       -0.6763345 -0.5987621 -0.61960965 -0.5410676
000120 fe 38 10 bf 5f 35 12 bf f4 c2 0a bf 2c a4 1b bf
       -0.56336963 -0.5711269 -0.54203725 -0.6079738
000130 38 19 10 bf 0d d6 11 bf ca 13 13 bf a0 64 1b bf
       -0.5628848 -0.5696724 -0.5745207 -0.60700417
000140 9e d0 14 bf aa da 20 bf 4c 9a 32 bf a4 dd 53 bf
       -0.58130825 -0.62833655 -0.6976669 -0.8276007
000150 1c c5 4f bf 7d 7e 76 bf 87 37 57 bf c9 65 4f bf
       -0.8116014 -0.96286756 -0.84069103 -0.81014687
000160 32 1c 43 bf de 51 5a bf 31 5f 1e bf 8d 5d 42 bf
       -0.762149 -0.8528117 -0.61864 -0.75924
000170 db 95 46 bf 74 73 59 bf 78 71 37 bf ce 63 2d bf
       -0.7757241 -0.8494179 -0.71657515 -0.67730415
000180 4d 57 57 bf fc 8b 5d bf cc 8d 5c bf 3c 92 48 bf
       -0.84117585 -0.86541724 -0.86153865 -0.78348136
000190 bd c7 3c bf ea 32 48 bf 5f b0 6c bf 1e ed 5c bf
       -0.73742276 -0.7820269 -0.9245662 -0.8629931
0001a0 9a 24 73 bf 90 42 74 bf 5d 88 5f bf 9c a8 87 bf
       -0.94977725 -0.95414066 -0.8731745 -1.059833
0001b0 05 88 99 bf ba e2 8a bf 5d 88 5f bf f2 d2 7c bf
       -1.1994635 -1.0850441 -0.8731745 -0.98759377
0001c0 ab fb 85 bf 17 b8 90 bf 51 a7 71 bf dd e6 71 bf
       -1.0467428 -1.130618 -0.9439593 -0.94492894
0001d0 bc 85 72 bf 00 dc 77 bf 9e d0 94 bf 7b 91 8b bf
       -0.9473531 -0.9682007 -1.1626165 -1.0903772
0001e0 06 3d 85 bf 24 3c 66 bf f8 8d 7f bf 50 ea 4c bf
       -1.0409248 -0.8993552 -0.99826 -0.8004503
0001f0 3e 91 37 bf 3d 26 4f bf 01 ab a0 bf 8e 55 09 c0
       -0.71705997 -0.8091772 -1.2552186 -2.1458468
000200 5c a2 9c bf 3c ac 05 bf 7f 97 a2 be 42 fb 8e 3b
       -1.2237048 -0.52215934 -0.31756207 0.0043634484
000210 db 95 46 bd 5d 0d 05 3e 21 80 52 be ce 8c cb bd
       -0.048482757 0.12993379 -0.2055669 -0.09938966
000220 4b 58 68 bd 49 de 9e 3b 00 61 1d be dc 52 6b be
       -0.056724828 0.004848276 -0.15369034 -0.22980827
000230 0f 27 3d be 8f c8 2a bd 59 0f a7 be 04 f4 92 be
       -0.18471931 -0.041695174 -0.32628897 -0.28701794
000240 73 b6 b4 be 1a 9d 42 be 4e eb 5d be 5d 0d 85 be
       -0.35295448 -0.19005242 -0.21671793 -0.25986758
000250 46 4b a9 be 25 7e b0 be 19 e0 9d be 08 44 ad be
       -0.33065242 -0.3447124 -0.30835035 -0.33840966
000260 02 db e6 be f2 a9 de be 0b d7 22 bf ba 0b a9 be
       -0.45088965 -0.43489033 -0.6360938 -0.3301676
000270 ec 31 b7 be d3 47 ce be 2e cc a8 be e1 fe 8c be
       -0.35780275 -0.40289173 -0.32968277 -0.27538207
000280 e8 e1 9c be 40 25 be be b1 0f ed be 91 f0 b7 be
       -0.30641103 -0.37137794 -0.46301034 -0.35925725
000290 73 b6 b4 be 62 1a c4 be d4 04 f3 be 92 5b a0 be
       -0.35295448 -0.38301378 -0.4746462 -0.31319863
0002a0 b1 0f ed be 9b 66 bd be d5 6f db be cb b6 fa be
       -0.46301034 -0.36992344 -0.4285876 -0.48967585
0002b0 b4 93 01 bf bf c6 ab be e2 bb b1 be 46 9d e5 be
       -0.50616 -0.3355007 -0.34713656 -0.44846553
0002c0 83 95 00 bf 83 95 00 bf 99 90 ec be ce 8c cb be
       -0.50228137 -0.50228137 -0.4620407 -0.39755863
0002d0 9d 8e ca be a8 04 d0 be 5d 5f c1 be d2 dc e5 be
       -0.3956193 -0.40628552 -0.3776807 -0.44895035
0002e0 7b 56 e9 be 67 ef 03 bf 97 ed 04 bf 9e d0 14 bf
       -0.45573792 -0.51537174 -0.51925033 -0.58130825
0002f0 8e 34 24 bf 32 6e ff be 64 5c 0e bf ff cc 16 bf
       -0.6414269 -0.4988876 -0.55609727 -0.5890655
000300 c2 30 03 bf 6b 16 00 bf c5 ec 16 bf 10 bb 43 bf
       -0.51246274 -0.5003421 -0.5895503 -0.7645731
000310 bf c6 2b bf 36 1a 21 bf 29 a5 2c bf 64 5c 0e bf
       -0.6710014 -0.6293062 -0.67439514 -0.55609727
000320 a4 8b 17 bf bc 0a 18 bf 47 b6 11 bf 21 2e 16 bf
       -0.5919745 -0.5939138 -0.5691876 -0.5866414
000330 24 c1 0b bf 91 c7 19 bf 19 e0 1d bf 8d a0 1d bf
       -0.54591584 -0.6007014 -0.6167007 -0.61573106
000340 99 15 12 bf e7 4d 16 bf cd cf 26 bf b5 0d 4b bf
       -0.57064205 -0.5871262 -0.6516083 -0.7931779
000350 84 7b 43 bf 55 ce 6d bf 38 6b 4c bf 1d 30 38 bf
       -0.76360345 -0.9289296 -0.798511 -0.71948415
000360 4d 2e 39 bf c5 3e 53 bf 44 23 1c bf 30 f4 35 bf
       -0.72336274 -0.82517654 -0.6099131 -0.71075726
000370 aa 03 3f bf d3 47 4e bf ce 63 2d bf 84 52 25 bf
       -0.74614966 -0.80578345 -0.67730415 -0.64579034
000380 ef ed 4a bf 5f 87 4e bf 7c 2d 4b bf e8 0a 3b bf
       -0.7926931 -0.8067531 -0.7936628 -0.73063517
000390 26 12 37 bf b8 0c 3a bf 32 45 61 bf 91 19 56 bf
       -0.7151207 -0.7267566 -0.8799621 -0.8363276
0003a0 63 d7 68 bf ce b5 69 bf a6 dc 42 bf 72 74 6a bf
       -0.90953654 -0.91293037 -0.7611793 -0.9158393
0003b0 7f b8 87 bf 65 ff 75 bf bc 33 36 bf f6 3c 54 bf
       -1.0603179 -0.96092826 -0.7117269 -0.8290552
0003c0 d8 2b 6f bf 4a ed 7f bf 73 df 52 bf 00 b3 59 bf
       -0.93426275 -0.9997145 -0.82372206 -0.8503876
0003d0 fc 8b 5d bf 41 76 69 bf bf 9d 8d bf d6 88 87 bf
       -0.86541724 -0.91196066 -1.1063765 -1.0588634
0003e0 6a ba 78 bf 26 3b 55 bf e7 c8 70 bf bd c7 3c bf
       -0.97159445 -0.8329338 -0.9405655 -0.73742276
0003f0 24 ea 29 bf 96 ab 3a bf 9a a9 98 bf 36 f1 02 c0
       -0.66372895 -0.7291807 -1.1926758 -2.0459723

functional_1/dense_3/MatMul i1 [128, 128]
000000 03 03 01 00 f6 03 04 01 fe fd 00 fe ff 01 ff ff
       3 3 1 0 -10 3 4 1 -2 -3 0 -2 -1 1 -1 -1
000010 ff 00 04 f7 ff 00 00 ff f5 fe 00 fb ff fe 01 fe
       -1 0 4 -9 -1 0 0 -1 -11 -2 0 -5 -1 -2 1 -2
000020 02 01 fe 03 01 fd f6 ff fc 02 01 01 00 00 00 ff
       2 1 -2 3 1 -3 -10 -1 -4 2 1 1 0 0 0 -1
000030 02 02 fe 04 fe 00 ff 01 00 00 00 00 0d fc ff ff
       2 2 -2 4 -2 0 -1 1 0 0 0 0 13 -4 -1 -1
000040 02 f9 02 ff fe 02 fe 00 00 01 00 00 fe ff 00 00
       2 -7 2 -1 -2 2 -2 0 0 1 0 0 -2 -1 0 0
000050 01 00 01 05 02 04 ff ff 02 04 00 fe fd 00 00 01
       1 0 1 5 2 4 -1 -1 2 4 0 -2 -3 0 0 1
000060 00 00 ff 00 01 ff 01 00 00 fe 00 01 a4 ff ff ff
       0 0 -1 0 1 -1 1 0 0 -2 0 1 -92 -1 -1 -1
000070 01 f6 01 03 04 00 01 00 02 00 01 f4 00 01 ff 02
       1 -10 1 3 4 0 1 0 2 0 1 -12 0 1 -1 2
000080 01 00 ff 00 fd 00 00 00 00 01 ff 00 00 ff 00 02
       1 0 -1 0 -3 0 0 0 0 1 -1 0 0 -1 0 2
000090 ff 00 fd ff 00 02 01 00 fe 00 01 00 01 ff 00 00
       -1 0 -3 -1 0 2 1 0 -2 0 1 0 1 -1 0 0
0000a0 fe ff 00 00 01 00 fd 00 ff 00 00 02 01 00 01 fe
       -2 -1 0 0 1 0 -3 0 -1 0 0 2 1 0 1 -2
0000b0 fd 00 ff 02 fa ff ff 00 00 ff fa 00 fb ff 00 01
       -3 0 -1 2 -6 -1 -1 0 0 -1 -6 0 -5 -1 0 1
0000c0 00 00 00 00 fe 01 00 01 ff 00 00 01 00 00 00 01
       0 0 0 0 -2 1 0 1 -1 0 0 1 0 0 0 1
0000d0 00 00 00 00 00 00 01 01 00 01 ff 00 00 00 00 00
       0 0 0 0 0 0 1 1 0 1 -1 0 0 0 0 0
0000e0 00 00 00 ff 00 00 00 00 00 01 01 01 00 00 02 00
       0 0 0 -1 0 0 0 0 0 1 1 1 0 0 2 0
0000f0 01 02 00 ff 00 00 00 01 00 00 00 01 00 ff fe 00
       1 2 0 -1 0 0 0 1 0 0 0 1 0 -1 -2 0

functional_1/dense_6/BiasAdd/ReadVariableOp/resource f4 [128]
000000 56 78 0d bf 72 a0 3c bd 63 70 66 3f a9 a5 a0 bf
       -0.55261743 -0.04605145 0.9001524 -1.2550555
000010 fd c7 02 3e 4f ae 01 3f ec f7 07 3f 86 b7 cb 3e
       0.12771602 0.506566 0.53112674 0.39788455
000020 18 a9 1d 3f dd bc 00 3f 71 04 fe 3e 67 4c 6e be
       0.6158614 0.5028818 0.49612764 -0.23271333
000030 d5 a4 15 bf 55 83 3e 3f e3 43 de 3e f6 56 07 3f
       -0.5845464 0.74419147 0.43411168 0.52867067
000040 58 66 11 3f dd 19 f7 be 0f 43 53 bf 8f 6f db 3e
       0.5679679 -0.4826192 -0.825242 0.4285855
000050 72 52 dd 3b 15 6d 3a 3f a3 2d 5a 3e 87 ac 1a 3f
       0.006754213 0.72822696 0.21306472 0.60419506
000060 4c 19 8e be 71 04 7e 3d fc 2b 44 be 72 a0 bc 3e
       -0.27753675 0.062015954 -0.19157404 0.3684116
000070 5e 94 de 3d 49 2b 8a bf e8 c6 d5 bd e0 55 5a 3f
       0.108681425 -1.079446 -0.10438329 0.85287285
000080 9c 0a 3e bf 5e 39 9b bf ee 3e 1c 3f 5f 89 2d 3d
       -0.7423494 -1.2126882 0.61033523 0.042367335
000090 65 03 a7 3f 6f bd 69 3f ec f7 07 3f 86 5e 3b 3e
       1.3047911 0.9130468 0.53112674 0.18297777
0000a0 5e 94 5e be 23 5a 62 3f 78 18 03 3f 54 8e ef 3e
       -0.21736285 0.8841879 0.5120921 0.46788275
0000b0 c6 9a 15 40 37 bf 50 be 79 6a 48 3f 1e 7c a7 bf
       2.3375716 -0.20385443 0.78287464 -1.3084753
0000c0 64 b3 94 be e1 4a a9 3f 72 f9 4c 3e 8e c4 05 3f
       -0.29043114 1.3225976 0.20017031 0.52253044
0000d0 79 1c 69 3f 0f f5 73 bd 5e e2 3d be 41 6c 2f bf
       0.9105907 -0.059559878 -0.18543383 -0.6852456
0000e0 5f 89 ad 3d 13 74 85 3f a5 70 08 bf 11 df 11 bd
       0.08473467 1.0426048 -0.5329688 -0.035613123
0000f0 89 9c d1 3f e7 74 90 3f 9a c3 29 bf 0f 43 d3 3e
       1.6375896 1.1285676 -0.6631409 0.412621
000100 fd 79 23 be ad 8c 59 be 26 3d 35 3f 10 91 b2 bd
       -0.15964504 -0.2124507 0.7079643 -0.08719075
000110 fd c7 82 3e 7c ff bb 3f b1 c1 71 bf a9 a5 a0 be
       0.25543204 1.4687343 -0.94436175 -0.3137639
000120 a5 1b 5e bf 99 ce 5a be 34 76 89 3f fd c7 82 3e
       -0.8676093 -0.21367873 1.0739198 0.25543204
000130 58 bf a1 3f d4 08 d7 bd 90 0b 1a 3e 0f f5 73 bf
       1.2636518 -0.10499731 0.15043473 -0.95295805
000140 fc 84 54 3e ce 8c 2a 3f 11 df 11 3d 07 27 82 3e
       0.20753855 0.666211 0.035613123 0.254204
000150 c0 4a d8 3e 24 f6 a0 bc dd 6e 21 bf 15 6d 3a bf
       0.4224453 -0.019648619 -0.6305979 -0.72822696
000160 5e 3b ce 3d 84 be 16 3f 54 35 5f 3e 24 4f 31 3e
       0.10069917 0.58884454 0.21797687 0.17315346
000170 ca 00 b5 bf 50 a7 b6 be 31 93 b6 3f 5d 46 ff 3d
       -1.4140866 -0.35674524 1.4263669 0.124645926
000180 de 0e 46 3e 45 53 e8 be 5c 4d 4a 3f c3 86 3b 3f
       0.19341609 -0.4537603 0.7902429 0.73252505
000190 3b 9b d8 be e3 91 bd 3e 1a 3e 11 be c0 fc 78 bf
       -0.4230593 0.37025365 -0.14183846 -0.97260666
0001a0 18 a9 9d 3f 4d 14 f6 bf 85 c2 fc bd 83 c9 47 bf
       1.2317228 -1.9224945 -0.12341789 -0.7804186
0001b0 32 3c 59 bf e9 62 14 be 41 c5 bf be 3d de 06 3f
       -0.84857476 -0.14490856 -0.3745518 0.5268286
0001c0 2b 17 8a 3f f0 85 30 3f 51 f5 15 bf 98 80 7b 3e
       1.078832 0.6895437 -0.5857745 0.24560773
0001d0 26 3b 82 3f 4b cb 2e bf 5d ed 6e 3d 8a 45 74 3f
       1.0174301 -0.6827895 0.058331836 0.9541861
0001e0 d9 8b ce be 71 04 7e be 0e f3 c0 3f 4a 7d cf 3e
       -0.4034107 -0.24806382 1.5074174 0.40525275
0001f0 b4 56 65 3f c9 57 12 3f a7 62 f2 3e 49 84 9a 3f
       0.89585423 0.571652 0.4734089 1.207162

functional_1/dense/BiasAdd/ReadVariableOp/resource f4 [128]
000000 f5 10 e8 3f 49 32 ac bf 72 73 56 c1 80 3c b5 c0
       1.8130175 -1.3452846 -13.403185 -5.6636353
000010 5e 21 8b 3e a9 84 da c0 1d fe 9e bf b2 06 68 41
       0.27173895 -6.828694 -1.2421299 14.501635
000020 f2 45 06 c0 45 77 99 3e 52 6d 1d 3f 61 49 fd be
       -2.0980191 0.29973808 0.61494935 -0.49470046
000030 12 3d df c0 d9 ca c7 3d 1d c5 91 3d c8 17 0a 40
       -6.976205 0.09755487 0.071176745 2.1577015
000040 6e 7a b0 40 64 63 42 40 b1 c7 b0 3f b0 19 11 c0
       5.514945 3.0373163 1.3810941 -2.2671928
000050 ac 50 a5 c1 ef e5 e1 be a3 d1 ac 40 42 97 32 40
       -20.66439 -0.44120738 5.4005904 2.790482
000060 6d 4d a4 40 d9 33 59 41 56 98 d5 c0 1c 7b 96 40
       5.1344514 13.575158 -6.6748457 4.702528
000070 d3 64 8d bf 6c 95 2a c0 a9 d9 00 c0 1b ec 8c bf
       -1.1046394 -2.66537 -2.013285 -1.1009554
000080 62 52 01 c0 56 b5 c4 c0 bb 66 14 40 a5 aa b1 bf
       -2.0206532 -6.1471357 2.3187702 -1.3880202
000090 35 c3 8a 40 a1 d6 4b 40 f7 50 d7 bf 55 54 98 c0
       4.336329 3.184975 -1.6821584 -4.7602944
0000a0 a6 73 99 40 46 c6 81 3e e4 a3 89 bf 09 df 3b 3f
       4.7953672 0.25346583 -1.075314 0.733872
0000b0 c4 fe 15 be c0 2b 01 bd 87 86 9f c0 3c 24 a6 3f
       -0.14647967 -0.031535864 -4.985172 1.2979808
0000c0 2a a7 48 41 12 ec 4f c0 83 fe 5b c0 80 1e f5 bf
       12.540812 -3.2487836 -3.4374092 -1.9149933
0000d0 d1 0e 43 c0 40 6e 74 c0 94 eb 77 c0 fc 65 16 c1
       -3.0477793 -3.8192291 -3.8737535 -9.399899
0000e0 6b 53 14 c0 77 3f be bf ed dd a9 c0 94 60 85 bf
       -2.3175914 -1.4863118 -5.3083405 -1.0420098
0000f0 88 b9 ee 3d 91 c5 2c 40 43 4e 5b c0 46 9d 11 c1
       0.11656481 2.6995585 -3.4266517 -9.100897
000100 ae a2 22 c1 e4 7f 06 40 7a 4f 29 bf 06 c4 a0 3f
       -10.164717 2.1015558 -0.66136897 1.2559822
000110 41 eb 39 c0 a1 b4 ef bf 21 e9 35 bf c1 b5 9d 40
       -2.9049838 -1.8726999 -0.7105885 4.9284368
000120 88 37 85 40 7e 29 d2 40 d7 f8 d6 40 a4 09 69 40
       4.1630287 6.567565 6.717876 3.6412134
000130 f9 d8 cc bf b9 6d da be b4 c1 27 c1 d4 c0 4c 40
       -1.6003715 -0.42661837 -10.484791 3.1992693
000140 a0 c1 c1 be 05 8d ba 3f 50 b8 1b c0 ca f0 8e 3f
       -0.37843037 1.4574286 -2.4331245 1.1167233
000150 26 ff b1 40 88 66 b8 40 37 a7 bf 40 5a 20 19 3f
       5.562396 5.762516 5.989162 0.5981499
000160 8a a8 ce 3e 63 5a 39 40 bb 7e 16 41 e4 bb 8b be
       0.4036296 2.8961418 9.40594 -0.27291787
000170 e7 be 24 41 bc 56 63 c1 30 94 bb 40 da 6c 66 3f
       10.296607 -14.208675 5.8618393 0.90009844
000180 90 e9 af bf 18 50 63 c0 71 1c 04 c1 3b b4 32 40
       -1.3743153 -3.5517635 -8.256944 2.7922504
000190 c6 9d 3c 40 58 4d 57 41 f3 89 43 40 62 dc 1d 40
       2.9471297 13.456383 3.0552948 2.466576
0001a0 34 c5 31 40 5e cb 8e 40 29 f4 85 c1 49 ee f3 3f
       2.7776613 4.462325 -16.744219 1.9057094
0001b0 f7 e9 ec 40 38 18 84 c0 45 19 b8 3e 74 bd 38 c0
       7.40356 -4.1279564 0.3595678 -2.8865633
0001c0 21 e9 35 3f 9c 57 be bf 38 d2 24 bf d2 17 cc bf
       0.7105885 -1.4870486 -0.6438327 -1.5944769
0001d0 50 3e 9c c0 a0 1f a3 be be 9a 82 40 e4 11 88 40
       -4.8826065 -0.31860065 4.0813894 4.252184
0001e0 77 fb 00 bf 79 0d 93 be 4d 34 74 40 92 aa b2 bb
       -0.50383705 -0.28721216 3.8156922 -0.0054524625
0001f0 df 0d 50 3f bb 78 d8 40 2c 35 e8 c0 f5 31 07 41
       0.81271166 6.7647376 -7.2564907 8.449697
