onnx_models/sinus_float.onnx (onnx, 3694 bytes, 5 tensors)

sequential/dense/MatMul f4 [16, 1]
000000 30 77 f9 bd bb 30 c9 be 45 f5 48 3e 52 14 32 3f
       -0.12180936 -0.3929499 0.19624813 0.69562256
000010 64 cc 12 3e e0 e1 83 bd ec 89 38 be 10 d0 5e bd
       0.14335781 -0.064395666 -0.18021363 -0.054397643
000020 36 7f ec be d3 a6 cf 3e 42 2b 8f 3e ff 9e 03 bf
       -0.46190804 0.40556964 0.2796269 -0.51414484
000030 f0 88 d7 be bc 27 20 3f 52 a5 bf be 30 a3 a9 be
       -0.42096663 0.6256063 -0.37430817 -0.33132315

sequential/dense/BiasAdd/ReadVariableOp f4 [16]
000000 00 00 00 00 00 00 00 00 99 de c1 3e f8 df 38 bf
       0.0 0.0 0.3786514 -0.7221675
000010 9d 42 ba 3d 32 8f 5b 3f 00 00 00 00 00 00 00 00
       0.09094737 0.85765374 0.0 0.0
000020 00 00 00 00 9d a1 97 3f 16 ce 55 be 00 00 00 00
       0.0 1.1846195 -0.20879397 0.0
000030 00 00 00 00 49 be 41 bc 00 00 00 00 00 00 00 00
       0.0 -0.011825153 0.0 0.0

sequential/dense_1/MatMul f4 [16, 16]
000000 80 6d 32 3b 0a 64 42 3e f5 a4 d3 3e 1a c7 3a be
       0.0027225912 0.18983474 0.4133679 -0.18240014
000010 66 99 4d 3e ac e9 49 be 38 73 7b bd 02 b3 04 be
       0.20078048 -0.19718045 -0.061389178 -0.12958911
000020 34 ae ff bd b7 f5 db be af b3 b2 be 4d 95 b1 3e
       -0.124843985 -0.42960903 -0.34902713 0.3468422
000030 83 a6 bc 3e 8e 14 3b 3e fa 7c 74 3e e9 f9 6d be
       0.36845788 0.1826956 0.238758 -0.23239864
000040 90 31 d3 bc 56 f2 48 3e 4a 01 0a 3d 5b 82 1b bf
       -0.02578047 0.19623694 0.033692636 -0.6074578
000050 e5 26 92 3d cd 5a cd 3e 69 43 cc be 24 aa ff bd
       0.07136325 0.40108338 -0.3989518 -0.124836236
000060 f3 02 c2 be e5 2a 87 3e 71 62 bd be 2f a3 ae 3e
       -0.37892875 0.26399913 -0.36989167 0.34108874
000070 2a 47 89 be 64 3b 25 3e ee 6f 09 be 65 e0 ba 3e
       -0.26812106 0.16135937 -0.13421604 0.36499324
000080 16 ff 11 3e 60 69 38 be 5f 7c b6 3e d4 ec 13 bf
       0.14257464 -0.18008947 0.35641763 -0.57783246
000090 bd a3 c9 be 03 41 4e 3f a9 f2 86 be 70 4f 85 bc
       -0.39382735 0.8056795 -0.2635701 -0.01627323
0000a0 53 ec 9a 3e 4f c9 e9 3e e2 fa 60 3e 9c 7f 60 be
       0.30258426 0.456614 0.21970704 -0.21923679
0000b0 86 c7 21 3e 2a c5 00 bf d1 da aa 3e aa 8b 14 be
       0.15798768 -0.5030085 0.3337007 -0.14506403
0000c0 51 60 54 be 48 c1 b7 be d3 08 38 3e 58 2e eb 3e
       -0.20739867 -0.3588965 0.17972116 0.45933795
0000d0 03 92 4f 3e 5a 49 cb be f5 1e bf 3e 80 dc 9c be
       0.20270543 -0.397044 0.37328306 -0.30636978
0000e0 cf 99 a2 3e 59 82 3d be 87 6f 98 3e 86 a5 8a be
       0.31757972 -0.18506755 0.2977259 -0.2707941
0000f0 0e 9b 63 be fb 7a 33 be 06 10 71 be a8 fc 10 bd
       -0.22227117 -0.17527382 -0.23541269 -0.0353972
000100 9c 46 91 3d 88 3c 92 be d4 bc f4 bd 4d 74 bf 3e
       0.07093546 -0.28561807 -0.119500786 0.37393418
000110 88 6c 03 bd 7b e9 db be 9f df c1 3e 6c e4 82 3d
       -0.032085925 -0.4295157 0.37865922 0.06391224
000120 44 78 d5 3d 80 8a fc bb 06 7b 14 3e b0 24 21 3d
       0.104233295 -0.00770694 0.14500055 0.03934163
000130 18 ce 09 3d c2 28 b3 be d6 b0 08 be 1c 63 c3 be
       0.033643812 -0.34992033 -0.13348708 -0.38161552
000140 80 98 5e 3b ac d8 e7 3d 31 12 a4 3c 22 02 ed 3d
       0.0033965409 0.11320624 0.020028206 0.115726724
000150 47 f3 a6 bb 82 ab d8 3e 00 fc 01 bb a7 c9 8a 3e
       -0.005094919 0.4231835 -0.0019834042 0.27106974
000160 80 5d 97 bd 5f e8 3b be 44 62 c2 bd 08 96 78 bd
       -0.073908806 -0.18350361 -0.09491399 -0.060689956
000170 da d8 72 3e a0 f3 8f 3e 68 d8 33 bd 26 14 17 3e
       0.23715535 0.2811556 -0.043907553 0.1475378
000180 ac c0 c9 be 8e 8a 94 be 50 3d b5 bc cf bb 82 3e
       -0.3940481 -0.2901196 -0.022123963 0.25533912
000190 9a 88 b3 be 11 8a da be e9 d9 95 3e a0 13 4b 3d
       -0.35065156 -0.4268346 0.29267815 0.049579263
0001a0 f9 b6 83 3e f4 14 bc be 1c 89 c1 3d eb ee ca 3e
       0.25725535 -0.36734736 0.0944998 0.39635405
0001b0 fc 30 ab be fc 62 9b bd 50 74 af be 37 16 d6 3e
       -0.3343581 -0.07587239 -0.34268427 0.41813824
0001c0 30 3e b5 bc 00 d1 f6 3a 66 bd f9 3d 94 2a 06 3f
       -0.02212438 0.0018830597 0.12194328 0.5240872
0001d0 f7 c8 cb be 4a a5 dc be b5 d0 a2 be 99 f0 7a be
       -0.39801762 -0.43094856 -0.31799856 -0.24505843
0001e0 42 1b 53 be df 90 6e be ee fe bf 3e 80 d3 53 3c
       -0.20615867 -0.23297451 0.37499183 0.0129288435
0001f0 20 00 45 3c 2c d0 4f be f0 67 df bd ce b1 05 3e
       0.012023956 -0.20294255 -0.109084964 0.13056108
000200 0c 4a f3 3d 3a f1 50 3e a0 b2 29 be 78 69 14 3e
       0.11879358 0.2040452 -0.16572046 0.14493358
000210 44 93 f8 3d 24 67 a3 3d 7a 9b 96 be 48 69 ca bd
       0.12137464 0.07978657 -0.29415494 -0.09883362
000220 7c ea ab 3d 32 d6 8b 3e a3 ca 47 bd be 1a cd be
       0.08394334 0.27311856 -0.048777234 -0.40059465
000230 c1 54 ce 3e d8 bb c3 3e 5c fc db be 50 f0 a0 3c
       0.40299037 0.3822925 -0.42965972 0.01964584
000240 80 30 d0 3c 65 29 b3 be f1 1f af bc 40 fa cd 3e
       0.025413752 -0.3499252 -0.021377536 0.40229988
000250 f3 33 46 be e8 9a e7 be 10 a1 9d be ce c4 43 3e
       -0.19355755 -0.45235372 -0.30786943 0.19118044
000260 16 af 5c be 05 f8 0f bf 9a 81 d0 3e 80 94 c6 3b
       -0.21551165 -0.5623782 0.40723878 0.006060183
000270 2b 0c 5f be 3d c6 bf 3e 28 f6 7d bd ca 61 8e be
       -0.21781985 0.3745593 -0.06200233 -0.27808982
000280 40 24 e7 3c c3 f1 83 3e 27 30 3f 3e 35 15 da be
       0.028215528 0.25770387 0.18670712 -0.42594305
000290 60 a3 a7 bb fc 00 65 3f 07 96 bd 3e 37 93 83 3e
       -0.0051159114 0.8945463 0.37028524 0.25698254
0002a0 88 45 3b 3d f5 ff c7 bc 30 5d 8b bd c5 79 91 3e
       0.045720607 -0.024414042 -0.068048835 0.28413215
0002b0 78 14 15 be ef e5 23 bf 11 2a a7 3e 41 7e da 3e
       -0.1455859 -0.64022726 0.32649282 0.4267445
0002c0 b7 32 7b be 8d 63 c4 3e 3e 29 26 3e bc 5b e9 bd
       -0.24531065 0.383572 0.1622667 -0.1139445
0002d0 90 49 59 3d e0 87 7d bc b1 ef ac 3e b8 30 16 bd
       0.05304867 -0.01547429 0.3377662 -0.036667556
0002e0 ac 56 8e bd 18 58 bb be 90 6f ab bd e3 61 84 3e
       -0.06950125 -0.36590648 -0.08370888 0.25855932
0002f0 48 41 6d 3d fb 22 cd 3e 80 9b 02 3c 8d c3 b1 be
       0.057923585 0.4006575 0.007971644 -0.34719506
000300 ca b2 cc be 62 ab 65 be af 17 53 3e 97 df 07 be
       -0.39980155 -0.22428659 0.20614503 -0.13268887
000310 98 21 7f 3e 63 10 51 3f 4e 1e 03 3e 38 a3 99 be
       0.24915159 0.8166563 0.12804529 -0.3000734
000320 78 1f 20 be 0d da f2 3e 86 ac 43 be 39 cb a9 3e
       -0.15637004 0.47431985 -0.19108781 0.3316286
000330 20 72 52 3d 02 97 ca be 5c e8 d8 bd 5f 38 b2 3e
       0.05137837 -0.39568335 -0.10591194 0.34808633
000340 83 15 bc 3e a7 fb a2 3e ae 3c 77 be 00 e4 7e be
       0.36735162 0.3183262 -0.24144241 -0.24891663
000350 0b c4 7c be 13 4c 4b 3f 73 84 d0 3e e0 67 55 3c
       -0.2468416 0.79412955 0.4072605 0.013025254
000360 a4 27 a7 be 6f 6f ed bd c5 b8 0e 3f 50 5d 80 3c
       -0.3264743 -0.1159352 0.55750686 0.015669495
000370 6e 37 09 3e 91 74 2f bf ec 2b b1 3d ff ad 83 3e
       0.13400051 -0.6853724 0.086509556 0.25718686
000380 0c 04 bb bd 88 dc b7 bd b5 1b 22 be 88 9b 86 3e
       -0.09131631 -0.0897761 -0.15830882 0.26290536
000390 ef 1a 40 3e 7a 62 d0 be fc 4d ef 3d 14 e9 db be
       0.18760274 -0.40700132 0.11684796 -0.42951262
0003a0 81 7c 89 be 0f d7 7c 3e 91 cd 16 be 6b fb 87 3e
       -0.268528 0.24691413 -0.14726855 0.26559004
0003b0 c2 bf 8f be 64 69 84 3e 8f 1c d6 be 3c 63 b7 bd
       -0.28075987 0.25861657 -0.41818663 -0.08954474
0003c0 6a 68 60 3e cd 69 93 3e cb 23 87 be 0f e1 a8 be
       0.21914831 0.28791657 -0.26394495 -0.32984206
0003d0 30 40 2d 3e b6 c9 2c 3d b4 1e 52 be 49 94 c1 be
       0.16919017 0.042184554 -0.20519525 -0.37808445
0003e0 00 2b 9e bb 44 9e aa 3e 0b a2 9e 3e 4a 26 37 be
       -0.0048269033 0.33323872 0.30983004 -0.178857
0003f0 08 8e 30 be 54 bf 69 3d 50 33 a1 be df 29 cb be
       -0.1724168 0.05706723 -0.3148446 -0.39680383

sequential/dense_1/BiasAdd/ReadVariableOp f4 [16]
000000 00 00 00 00 c5 b3 00 3f a4 ba d0 3e 52 ce 82 be
       0.0 0.50274307 0.40767395 -0.25548035
000010 00 00 00 00 4f 1b 33 3e 00 00 00 00 21 72 77 be
       0.0 0.17490886 0.0 -0.2416463
000020 cc cd 8f 3d fd a3 dc be 88 e3 18 3f 00 00 00 00
       0.070216745 -0.43093863 0.59722185 0.0
000030 91 8c 61 3e 0e 76 0b 3f b0 55 47 be 14 09 92 bd
       0.22026278 0.5447701 -0.19466281 -0.07130638

sequential/dense_2/MatMul f4 [1, 16]
000000 ea 85 f1 be ef 1c 9a 3f a3 23 a1 3f 12 94 b7 3e
       -0.4717248 1.204008 1.2589 0.35855156
000010 00 89 e2 3d eb 7a 86 be 18 6f a9 3e ec 6d 61 3f
       0.11061287 -0.26265654 0.3309257 0.8805835
000020 12 4a 3d be 42 6b 8a 3f c1 c3 3c bf e8 c0 9f 3e
       -0.18485287 1.0813982 -0.73736197 0.31201863
000030 ee af 59 bf c1 51 6e bf 98 8c 0b 3e e1 c3 e3 3d
       -0.8503407 -0.93093497 0.13627851 0.11121345
